_________________________________________________________________
Layer (type)                 Output Shape              Param #   
=================================================================
embedding (Embedding)        (None, 24, 11)            363       
_________________________________________________________________
bidirectional (Bidirectional (None, 1024)              2146304   
_________________________________________________________________
repeat_vector (RepeatVector) (None, 24, 1024)          0         
_________________________________________________________________
bidirectional_1 (Bidirection (None, 24, 512)           2623488   
_________________________________________________________________
time_distributed (TimeDistri (None, 24, 41)            21033     
=================================================================
Total params: 4,791,188
Trainable params: 4,791,188
Non-trainable params: 0

Tensorflow 2.5.0

W:GAM W-GM W-GM correct 
H@>:ATONOWT H->T(WN/WT H->T(WN/WT correct 
XAJ XJ/ XJ/ correct 
HAG.:BW.L H-GBWL/ H-GBWL/ correct 
B:N;J BN/J BN/J correct 
W:JIK:T.:BW. W-!J!KTB[W W-!J!KTB[W correct 
COWR CWR/ CWR/ correct 
B.:HAR B-HR/ B-HR/ correct 
…
